…
2026-03-04 10:33:22,162   INFO  ==> Loading parameters from checkpoint /root/autodl-tmp/MambaFusion-main/output/mambafusion_models/mamba_fusion/default/ckpt/latest_model.pth to CPU
2026-03-04 10:33:22,588   INFO  ==> Loading optimizer parameters from checkpoint /root/autodl-tmp/MambaFusion-main/output/mambafusion_models/mamba_fusion/default/ckpt/latest_model.pth to CPU
2026-03-04 10:33:22,679   INFO  ==> Done
2026-03-04 10:33:23,150   INFO  ----------- Model MambaFusion created, param count: 33615377 -----------
2026-03-04 10:33:23,150   INFO  DistributedDataParallel(
  (module): MambaFusion(
    (vfe): DynamicVoxelVFE(
      (pfn_layers): ModuleList(
        (0): PFNLayerV2(
          (linear): Linear(in_features=11, out_features=64, bias=False)
          (norm): SyncBatchNorm(64, eps=0.001, momentum=0.01, affine=True, track_running_stats=True)
          (relu): ReLU()
        )
        (1): PFNLayerV2(
          (linear): Linear(in_features=128, out_features=128, bias=False)
          (norm): SyncBatchNorm(128, eps=0.001, momentum=0.01, affine=True, track_running_stats=True)
          (relu): ReLU()
        )
      )
    )
    (backbone_3d): LION3DBackboneOneStride(
      (linear_1): LIONBlock(
        (encoder): ModuleList(
          (0-1): 2 x LIONLayer(
            (blocks): ModuleList(
              (0-1): 2 x Block2(
                (mamba): Mamba(
                  (in_proj): Linear(in_features=128, out_features=512, bias=False)
                  (conv1d): Conv1d(256, 256, kernel_size=(4,), stride=(1,), padding=(3,), groups=256)
                  (act): SiLU()
                  (x_proj): Linear(in_features=256, out_features=40, bias=False)
                  (dt_proj): Linear(in_features=8, out_features=256, bias=True)
                  (out_proj): Linear(in_features=256, out_features=128, bias=False)
                )
                (norm): LayerNorm((128,), eps=1e-05, elementwise_affine=True)
                (drop_path): timm.DropPath(0.2)
              )
            )
            (window_partition): FlattenedWindowMapping()
          )
        )
        (downsample_list): ModuleList(
          (0-1): 2 x PatchMerging3D(
            (sub_conv): SparseSequential(
              (0): SubMConv3d(128, 128, kernel_size=[3, 3, 3], stride=[1, 1, 1], padding=[0, 0, 0], dilation=[1, 1, 1], output_padding=[0, 0, 0], bias=False, algo=ConvAlgo.MaskImplicitGemm)
              (1): LayerNorm((128,), eps=1e-05, elementwise_affine=True)
              (2): GELU(approximate='none')
            )
            (norm): LayerNorm((128,), eps=1e-05, elementwise_affine=True)
            (sigmoid): Sigmoid()
          )
        )
        (pos_emb_list): ModuleList(
          (0-1): 2 x PositionEmbeddingLearned(
            (position_embedding_head): Sequential(
              (0): Linear(in_features=3, out_features=128, bias=True)
              (1): SyncBatchNorm(128, eps=1e-05, momentum=0.1, affine=True, track_running_stats=True)
              (2): ReLU(inplace=True)
              (3): Linear(in_features=128, out_features=128, bias=True)
            )
          )
        )
        (decoder): ModuleList(
          (0-1): 2 x LIONLayer(
            (blocks): ModuleList(
              (0-1): 2 x Block2(
                (mamba): Mamba(
                  (in_proj): Linear(in_features=128, out_features=512, bias=False)
                  (conv1d): Conv1d(256, 256, kernel_size=(4,), stride=(1,), padding=(3,), groups=256)
                  (act): SiLU()
                  (x_proj): Linear(in_features=256, out_features=40, bias=False)
                  (dt_proj): Linear(in_features=8, out_features=256, bias=True)
                  (out_proj): Linear(in_features=256, out_features=128, bias=False)
                )
                (norm): LayerNorm((128,), eps=1e-05, elementwise_affine=True)
                (drop_path): timm.DropPath(0.2)
              )
            )
            (window_partition): FlattenedWindowMapping()
          )
        )
        (decoder_norm): ModuleList(
          (0-1): 2 x LayerNorm((128,), eps=1e-05, elementwise_affine=True)
        )
        (upsample_list): ModuleList(
          (0-1): 2 x PatchExpanding3D()
        )
      )
      (dow1): PatchMerging3D(
        (sub_conv): SparseSequential(
          (0): SubMConv3d(128, 128, kernel_size=[3, 3, 3], stride=[1, 1, 1], padding=[0, 0, 0], dilation=[1, 1, 1], output_padding=[0, 0, 0], bias=False, algo=ConvAlgo.MaskImplicitGemm)
          (1): LayerNorm((128,), eps=1e-05, elementwise_affine=True)
          (2): GELU(approximate='none')
        )
        (norm): LayerNorm((128,), eps=1e-05, elementwise_affine=True)
        (sigmoid): Sigmoid()
      )
      (linear_2): LIONBlock(
        (encoder): ModuleList(
          (0-1): 2 x LIONLayer(
            (blocks): ModuleList(
              (0-1): 2 x Block2(
                (mamba): Mamba(
                  (in_proj): Linear(in_features=128, out_features=512, bias=False)
                  (conv1d): Conv1d(256, 256, kernel_size=(4,), stride=(1,), padding=(3,), groups=256)
                  (act): SiLU()
                  (x_proj): Linear(in_features=256, out_features=40, bias=False)
                  (dt_proj): Linear(in_features=8, out_features=256, bias=True)
                  (out_proj): Linear(in_features=256, out_features=128, bias=False)
                )
                (norm): LayerNorm((128,), eps=1e-05, elementwise_affine=True)
                (drop_path): timm.DropPath(0.2)
              )
            )
            (window_partition): FlattenedWindowMapping()
          )
        )
        (downsample_list): ModuleList(
          (0-1): 2 x PatchMerging3D(
            (sub_conv): SparseSequential(
              (0): SubMConv3d(128, 128, kernel_size=[3, 3, 3], stride=[1, 1, 1], padding=[0, 0, 0], dilation=[1, 1, 1], output_padding=[0, 0, 0], bias=False, algo=ConvAlgo.MaskImplicitGemm)
              (1): LayerNorm((128,), eps=1e-05, elementwise_affine=True)
              (2): GELU(approximate='none')
            )
            (norm): LayerNorm((128,), eps=1e-05, elementwise_affine=True)
            (sigmoid): Sigmoid()
          )
        )
        (pos_emb_list): ModuleList(
          (0-1): 2 x PositionEmbeddingLearned(
            (position_embedding_head): Sequential(
              (0): Linear(in_features=3, out_features=128, bias=True)
              (1): SyncBatchNorm(128, eps=1e-05, momentum=0.1, affine=True, track_running_stats=True)
              (2): ReLU(inplace=True)
              (3): Linear(in_features=128, out_features=128, bias=True)
            )
          )
        )
        (decoder): ModuleList(
          (0-1): 2 x LIONLayer(
            (blocks): ModuleList(
              (0-1): 2 x Block2(
                (mamba): Mamba(
                  (in_proj): Linear(in_features=128, out_features=512, bias=False)
                  (conv1d): Conv1d(256, 256, kernel_size=(4,), stride=(1,), padding=(3,), groups=256)
                  (act): SiLU()
                  (x_proj): Linear(in_features=256, out_features=40, bias=False)
                  (dt_proj): Linear(in_features=8, out_features=256, bias=True)
                  (out_proj): Linear(in_features=256, out_features=128, bias=False)
                )
                (norm): LayerNorm((128,), eps=1e-05, elementwise_affine=True)
                (drop_path): timm.DropPath(0.2)
              )
            )
            (window_partition): FlattenedWindowMapping()
          )
        )
        (decoder_norm): ModuleList(
          (0-1): 2 x LayerNorm((128,), eps=1e-05, elementwise_affine=True)
        )
        (upsample_list): ModuleList(
          (0-1): 2 x PatchExpanding3D()
        )
      )
      (dow2): PatchMerging3D(
        (sub_conv): SparseSequential(
          (0): SubMConv3d(128, 128, kernel_size=[3, 3, 3], stride=[1, 1, 1], padding=[0, 0, 0], dilation=[1, 1, 1], output_padding=[0, 0, 0], bias=False, algo=ConvAlgo.MaskImplicitGemm)
          (1): LayerNorm((128,), eps=1e-05, elementwise_affine=True)
          (2): GELU(approximate='none')
        )
        (norm): LayerNorm((128,), eps=1e-05, elementwise_affine=True)
        (sigmoid): Sigmoid()
      )
      (linear_3): LIONBlock(
        (encoder): ModuleList(
          (0-1): 2 x LIONLayer(
            (blocks): ModuleList(
              (0-1): 2 x Block2(
                (mamba): Mamba(
                  (in_proj): Linear(in_features=128, out_features=512, bias=False)
                  (conv1d): Conv1d(256, 256, kernel_size=(4,), stride=(1,), padding=(3,), groups=256)
                  (act): SiLU()
                  (x_proj): Linear(in_features=256, out_features=40, bias=False)
                  (dt_proj): Linear(in_features=8, out_features=256, bias=True)
                  (out_proj): Linear(in_features=256, out_features=128, bias=False)
                )
                (norm): LayerNorm((128,), eps=1e-05, elementwise_affine=True)
                (drop_path): timm.DropPath(0.2)
              )
            )
            (window_partition): FlattenedWindowMapping()
          )
        )
        (downsample_list): ModuleList(
          (0-1): 2 x PatchMerging3D(
            (sub_conv): SparseSequential(
              (0): SubMConv3d(128, 128, kernel_size=[3, 3, 3], stride=[1, 1, 1], padding=[0, 0, 0], dilation=[1, 1, 1], output_padding=[0, 0, 0], bias=False, algo=ConvAlgo.MaskImplicitGemm)
              (1): LayerNorm((128,), eps=1e-05, elementwise_affine=True)
              (2): GELU(approximate='none')
            )
            (norm): LayerNorm((128,), eps=1e-05, elementwise_affine=True)
            (sigmoid): Sigmoid()
          )
        )
        (pos_emb_list): ModuleList(
          (0-1): 2 x PositionEmbeddingLearned(
            (position_embedding_head): Sequential(
              (0): Linear(in_features=3, out_features=128, bias=True)
              (1): SyncBatchNorm(128, eps=1e-05, momentum=0.1, affine=True, track_running_stats=True)
              (2): ReLU(inplace=True)
              (3): Linear(in_features=128, out_features=128, bias=True)
            )
          )
        )
        (decoder): ModuleList(
          (0-1): 2 x LIONLayer(
            (blocks): ModuleList(
              (0-1): 2 x Block2(
                (mamba): Mamba(
                  (in_proj): Linear(in_features=128, out_features=512, bias=False)
                  (conv1d): Conv1d(256, 256, kernel_size=(4,), stride=(1,), padding=(3,), groups=256)
                  (act): SiLU()
                  (x_proj): Linear(in_features=256, out_features=40, bias=False)
                  (dt_proj): Linear(in_features=8, out_features=256, bias=True)
                  (out_proj): Linear(in_features=256, out_features=128, bias=False)
                )
                (norm): LayerNorm((128,), eps=1e-05, elementwise_affine=True)
                (drop_path): timm.DropPath(0.2)
              )
            )
            (window_partition): FlattenedWindowMapping()
          )
        )
        (decoder_norm): ModuleList(
          (0-1): 2 x LayerNorm((128,), eps=1e-05, elementwise_affine=True)
        )
        (upsample_list): ModuleList(
          (0-1): 2 x PatchExpanding3D()
        )
      )
      (dow3): PatchMerging3D(
        (sub_conv): SparseSequential(
          (0): SubMConv3d(128, 128, kernel_size=[3, 3, 3], stride=[1, 1, 1], padding=[0, 0, 0], dilation=[1, 1, 1], output_padding=[0, 0, 0], bias=False, algo=ConvAlgo.MaskImplicitGemm)
          (1): LayerNorm((128,), eps=1e-05, elementwise_affine=True)
          (2): GELU(approximate='none')
        )
        (norm): LayerNorm((128,), eps=1e-05, elementwise_affine=True)
        (sigmoid): Sigmoid()
      )
      (linear_4): LIONBlock(
        (encoder): ModuleList(
          (0-1): 2 x LIONLayer(
            (blocks): ModuleList(
              (0-1): 2 x Block2(
                (mamba): Mamba(
                  (in_proj): Linear(in_features=128, out_features=512, bias=False)
                  (conv1d): Conv1d(256, 256, kernel_size=(4,), stride=(1,), padding=(3,), groups=256)
                  (act): SiLU()
                  (x_proj): Linear(in_features=256, out_features=40, bias=False)
                  (dt_proj): Linear(in_features=8, out_features=256, bias=True)
                  (out_proj): Linear(in_features=256, out_features=128, bias=False)
                )
                (norm): LayerNorm((128,), eps=1e-05, elementwise_affine=True)
                (drop_path): timm.DropPath(0.2)
              )
            )
            (window_partition): FlattenedWindowMapping()
          )
        )
        (downsample_list): ModuleList(
          (0-1): 2 x PatchMerging3D(
            (sub_conv): SparseSequential(
              (0): SubMConv3d(128, 128, kernel_size=[3, 3, 3], stride=[1, 1, 1], padding=[0, 0, 0], dilation=[1, 1, 1], output_padding=[0, 0, 0], bias=False, algo=ConvAlgo.MaskImplicitGemm)
              (1): LayerNorm((128,), eps=1e-05, elementwise_affine=True)
              (2): GELU(approximate='none')
            )
            (norm): LayerNorm((128,), eps=1e-05, elementwise_affine=True)
            (sigmoid): Sigmoid()
          )
        )
        (pos_emb_list): ModuleList(
          (0-1): 2 x PositionEmbeddingLearned(
            (position_embedding_head): Sequential(
              (0): Linear(in_features=3, out_features=128, bias=True)
              (1): SyncBatchNorm(128, eps=1e-05, momentum=0.1, affine=True, track_running_stats=True)
              (2): ReLU(inplace=True)
              (3): Linear(in_features=128, out_features=128, bias=True)
            )
          )
        )
        (decoder): ModuleList(
          (0-1): 2 x LIONLayer(
            (blocks): ModuleList(
              (0-1): 2 x Block2(
                (mamba): Mamba(
                  (in_proj): Linear(in_features=128, out_features=512, bias=False)
                  (conv1d): Conv1d(256, 256, kernel_size=(4,), stride=(1,), padding=(3,), groups=256)
                  (act): SiLU()
                  (x_proj): Linear(in_features=256, out_features=40, bias=False)
                  (dt_proj): Linear(in_features=8, out_features=256, bias=True)
                  (out_proj): Linear(in_features=256, out_features=128, bias=False)
                )
                (norm): LayerNorm((128,), eps=1e-05, elementwise_affine=True)
                (drop_path): timm.DropPath(0.2)
              )
            )
            (window_partition): FlattenedWindowMapping()
          )
        )
        (decoder_norm): ModuleList(
          (0-1): 2 x LayerNorm((128,), eps=1e-05, elementwise_affine=True)
        )
        (upsample_list): ModuleList(
          (0-1): 2 x PatchExpanding3D()
        )
      )
      (dow4): PatchMerging3D(
        (sub_conv): SparseSequential(
          (0): SubMConv3d(128, 128, kernel_size=[3, 3, 3], stride=[1, 1, 1], padding=[0, 0, 0], dilation=[1, 1, 1], output_padding=[0, 0, 0], bias=False, algo=ConvAlgo.MaskImplicitGemm)
          (1): LayerNorm((128,), eps=1e-05, elementwise_affine=True)
          (2): GELU(approximate='none')
        )
        (norm): LayerNorm((128,), eps=1e-05, elementwise_affine=True)
        (sigmoid): Sigmoid()
      )
      (linear_out): LIONLayer(
        (blocks): ModuleList(
          (0-1): 2 x Block2(
            (mamba): Mamba(
              (in_proj): Linear(in_features=128, out_features=512, bias=False)
              (conv1d): Conv1d(256, 256, kernel_size=(4,), stride=(1,), padding=(3,), groups=256)
              (act): SiLU()
              (x_proj): Linear(in_features=256, out_features=40, bias=False)
              (dt_proj): Linear(in_features=8, out_features=256, bias=True)
              (out_proj): Linear(in_features=256, out_features=128, bias=False)
            )
            (norm): LayerNorm((128,), eps=1e-05, elementwise_affine=True)
            (drop_path): timm.DropPath(0.2)
          )
        )
        (window_partition): FlattenedWindowMapping()
      )
      (dow5): PatchMerging3D(
        (sub_conv): SparseSequential(
          (0): SubMConv3d(128, 128, kernel_size=[3, 3, 3], stride=[1, 1, 1], padding=[0, 0, 0], dilation=[1, 1, 1], output_padding=[0, 0, 0], bias=False, algo=ConvAlgo.MaskImplicitGemm)
          (1): LayerNorm((128,), eps=1e-05, elementwise_affine=True)
          (2): GELU(approximate='none')
        )
        (norm): LayerNorm((128,), eps=1e-05, elementwise_affine=True)
        (sigmoid): Sigmoid()
      )
    )
    (mm_backbone): MambaFusion(
      (backbone_vssm): Backbone_VSSM(
        (patch_embed): Sequential(
          (0): Conv2d(3, 64, kernel_size=(3, 3), stride=(2, 2), padding=(1, 1))
          (1): Identity()
          (2): LayerNorm2d((64,), eps=1e-05, elementwise_affine=True)
          (3): Identity()
          (4): GELU(approximate='none')
          (5): Conv2d(64, 128, kernel_size=(3, 3), stride=(2, 2), padding=(1, 1))
          (6): Identity()
          (7): LayerNorm2d((128,), eps=1e-05, elementwise_affine=True)
        )
        (layers): ModuleList(
          (0): Sequential(
            (blocks): Sequential(
              (0): VSSBlock(
                (norm): LayerNorm2d((128,), eps=1e-05, elementwise_affine=True)
                (op): SS2D(
                  (out_norm): LayerNorm2d((256,), eps=1e-05, elementwise_affine=True)
                  (in_proj): Linear2d(in_features=128, out_features=256, bias=False)
                  (act): SiLU()
                  (conv2d): Conv2d(256, 256, kernel_size=(3, 3), stride=(1, 1), padding=(1, 1), groups=256, bias=False)
                  (out_act): Identity()
                  (out_proj): Linear2d(in_features=256, out_features=128, bias=False)
                  (dropout): Identity()
                )
                (drop_path): timm.DropPath(0.0)
                (norm2): LayerNorm2d((128,), eps=1e-05, elementwise_affine=True)
                (mlp): Mlp(
…
                (drop_path): timm.DropPath(0.20000000298023224)
                (norm2): LayerNorm2d((256,), eps=1e-05, elementwise_affine=True)
                (mlp): Mlp(
                  (fc1): Linear2d(in_features=256, out_features=1024, bias=True)
                  (act): GELU(approximate='none')
                  (fc2): Linear2d(in_features=1024, out_features=256, bias=True)
                  (drop): Dropout(p=0.0, inplace=False)
                )
              )
            )
            (downsample): Identity()
          )
        )
        (outnorm1): LayerNorm2d((256,), eps=1e-05, elementwise_affine=True)
      )
      (vssm_down_block): Conv2d(256, 128, kernel_size=(1, 1), stride=(1, 1))
      (image_input_layer): UniTRInputLayer(
        (posembed_layers): ModuleList(
          (0): ModuleList(
            (0-1): 2 x Identity()
          )
        )
      )
      (lidar_input_layer): UniTRInputLayer(
        (posembed_layers): ModuleList(
          (0): ModuleList(
            (0-1): 2 x Identity()
          )
        )
      )
      (out_norm0): LayerNorm((128,), eps=1e-05, elementwise_affine=True)
      (out_norm1): LayerNorm((128,), eps=1e-05, elementwise_affine=True)
      (map_lidar2image_layer): MapLidar2Image()
      (pos_embed_inter2): ModuleList(
        (0): Sequential(
          (0): Linear(in_features=9, out_features=128, bias=True)
          (1): SyncBatchNorm(128, eps=1e-05, momentum=0.1, affine=True, track_running_stats=True)
          (2): ReLU(inplace=True)
          (3): Linear(in_features=128, out_features=128, bias=True)
        )
      )
      (multi_scale_norm_list): ModuleList()
      (pos_embed_intra): Sequential(
        (0): Linear(in_features=9, out_features=128, bias=True)
        (1): SyncBatchNorm(128, eps=1e-05, momentum=0.1, affine=True, track_running_stats=True)
        (2): ReLU(inplace=True)
        (3): Linear(in_features=128, out_features=128, bias=True)
      )
      (stage_0): ModuleList(
        (0-1): 2 x ModuleList(
          (0): LocalMamba(
            (encoder): ModuleList(
              (0-1): 2 x LocalMambaLayer(
                (blocks): ModuleList(
                  (0-1): 2 x Block2(
                    (mamba): Mamba(
                      (in_proj): Linear(in_features=128, out_features=512, bias=False)
                      (conv1d): Conv1d(256, 256, kernel_size=(4,), stride=(1,), padding=(3,), groups=256)
                      (act): SiLU()
                      (x_proj): Linear(in_features=256, out_features=40, bias=False)
                      (dt_proj): Linear(in_features=8, out_features=256, bias=True)
                      (out_proj): Linear(in_features=256, out_features=128, bias=False)
                    )
                    (norm): LayerNorm((128,), eps=1e-05, elementwise_affine=True)
                    (drop_path): timm.DropPath(0.2)
                  )
                )
                (window_partition): FlattenedWindowMapping()
              )
            )
            (downsample_list): ModuleList(
              (0-1): 2 x PatchMerging3D(
                (sub_conv): SparseSequential(
                  (0): SubMConv3d(128, 128, kernel_size=[3, 3, 3], stride=[1, 1, 1], padding=[0, 0, 0], dilation=[1, 1, 1], output_padding=[0, 0, 0], bias=False, algo=ConvAlgo.MaskImplicitGemm)
                  (1): LayerNorm((128,), eps=1e-05, elementwise_affine=True)
                  (2): GELU(approximate='none')
                )
                (norm): LayerNorm((128,), eps=1e-05, elementwise_affine=True)
                (sigmoid): Sigmoid()
              )
            )
            (pos_emb_list): ModuleList(
              (0-1): 2 x PositionEmbeddingLearned(
                (position_embedding_head): Sequential(
                  (0): Linear(in_features=2, out_features=128, bias=True)
                  (1): SyncBatchNorm(128, eps=1e-05, momentum=0.1, affine=True, track_running_stats=True)
                  (2): ReLU(inplace=True)
                  (3): Linear(in_features=128, out_features=128, bias=True)
                )
              )
            )
            (decoder): ModuleList(
              (0-1): 2 x LocalMambaLayer(
                (blocks): ModuleList(
                  (0-1): 2 x Block2(
                    (mamba): Mamba(
                      (in_proj): Linear(in_features=128, out_features=512, bias=False)
                      (conv1d): Conv1d(256, 256, kernel_size=(4,), stride=(1,), padding=(3,), groups=256)
                      (act): SiLU()
                      (x_proj): Linear(in_features=256, out_features=40, bias=False)
                      (dt_proj): Linear(in_features=8, out_features=256, bias=True)
                      (out_proj): Linear(in_features=256, out_features=128, bias=False)
                    )
                    (norm): LayerNorm((128,), eps=1e-05, elementwise_affine=True)
                    (drop_path): timm.DropPath(0.2)
                  )
                )
                (window_partition): FlattenedWindowMapping()
              )
            )
            (decoder_norm): ModuleList(
              (0-1): 2 x LayerNorm((128,), eps=1e-05, elementwise_affine=True)
            )
            (upsample_list): ModuleList(
              (0-1): 2 x PatchExpanding3D()
            )
          )
          (1): GlobalMamba(
            (mamba_encoder_list): ModuleList(
              (0-1): 2 x Block(
                (norm): RMSNorm()
                (mixer): Mamba(
                  (in_proj): Linear(in_features=128, out_features=512, bias=False)
                  (conv1d): Conv1d(256, 256, kernel_size=(4,), stride=(1,), padding=(3,), groups=256)
                  (act): SiLU()
                  (x_proj): Linear(in_features=256, out_features=40, bias=False)
                  (dt_proj): Linear(in_features=8, out_features=256, bias=True)
                  (out_proj): Linear(in_features=256, out_features=128, bias=False)
                )
              )
            )
            (conv_encoder): ModuleList(
              (0): DownSp(
                (blocks): SparseSequential(
                  (0): Identity()
                )
              )
              (1): DownSp(
                (blocks): SparseSequential(
                  (0): SparseSequential(
                    (0): SparseConv3d(128, 128, kernel_size=[3, 3, 3], stride=[2, 2, 2], padding=[1, 1, 1], dilation=[1, 1, 1], output_padding=[0, 0, 0], bias=False, algo=ConvAlgo.MaskImplicitGemm)
…
            (conv_decoder): ModuleList(
              (0): SparseSequential(
                (0): SparseInverseConv3d(128, 128, kernel_size=[3, 3, 3], stride=[1, 1, 1], padding=[0, 0, 0], dilation=[1, 1, 1], output_padding=[0, 0, 0], bias=False, algo=ConvAlgo.MaskImplicitGemm)
                (1): SyncBatchNorm(128, eps=0.001, momentum=0.01, affine=True, track_running_stats=True)
                (2): ReLU()
              )
            )
            (conv_decoder_norm): ModuleList(
              (0): SyncBatchNorm(128, eps=0.001, momentum=0.01, affine=True, track_running_stats=True)
            )
            (norm): LayerNorm((128,), eps=1e-05, elementwise_affine=True)
            (norm_back): LayerNorm((128,), eps=1e-05, elementwise_affine=True)
          )
        )
      )
      (residual_norm_stage_0): ModuleList(
        (0-1): 2 x LayerNorm((128,), eps=1e-05, elementwise_affine=True)
      )
      (lidar_residual_norm_stage_0): ModuleList(
        (0-1): 2 x LayerNorm((128,), eps=1e-05, elementwise_affine=True)
      )
    )
    (neck): GeneralizedLSSFPN(
      (lateral_convs): ModuleList(
        (0): BasicBlock2D(
          (conv): Conv2d(256, 256, kernel_size=(1, 1), stride=(1, 1))
          (bn): SyncBatchNorm(256, eps=1e-05, momentum=0.1, affine=True, track_running_stats=True)
          (relu): ReLU(inplace=True)
        )
      )
      (fpn_convs): ModuleList(
        (0): BasicBlock2D(
          (conv): Conv2d(256, 256, kernel_size=(3, 3), stride=(1, 1), padding=(1, 1))
          (bn): SyncBatchNorm(256, eps=1e-05, momentum=0.1, affine=True, track_running_stats=True)
          (relu): ReLU(inplace=True)
        )
      )
    )
    (vtransform): LSSTransform_Lite(
      (mamba_layernorm): LayerNorm((80,), eps=1e-05, elementwise_affine=True)
      (mamba_layernorm2): LayerNorm((128,), eps=1e-05, elementwise_affine=True)
      (mamba_blocks): ModuleList(
        (0): GlobalMamba(
          (mamba_encoder_list): ModuleList(
            (0-1): 2 x Block(
              (norm): RMSNorm()
              (mixer): Mamba(
                (in_proj): Linear(in_features=128, out_features=512, bias=False)
                (conv1d): Conv1d(256, 256, kernel_size=(4,), stride=(1,), padding=(3,), groups=256)
                (act): SiLU()
                (x_proj): Linear(in_features=256, out_features=40, bias=False)
                (dt_proj): Linear(in_features=8, out_features=256, bias=True)
                (out_proj): Linear(in_features=256, out_features=128, bias=False)
              )
            )
          )
          (conv_encoder): ModuleList(
            (0): DownSp(
              (blocks): SparseSequential(
                (0): Identity()
              )
            )
            (1): DownSp(
              (blocks): SparseSequential(
                (0): SparseSequential(
                  (0): SparseConv3d(128, 128, kernel_size=[3, 3, 3], stride=[2, 2, 2], padding=[1, 1, 1], dilation=[1, 1, 1], output_padding=[0, 0, 0], bias=False, algo=ConvAlgo.MaskImplicitGemm)
…
          )
          (conv_decoder): ModuleList(
            (0): SparseSequential(
              (0): SparseInverseConv3d(128, 128, kernel_size=[3, 3, 3], stride=[1, 1, 1], padding=[0, 0, 0], dilation=[1, 1, 1], output_padding=[0, 0, 0], bias=False, algo=ConvAlgo.MaskImplicitGemm)
              (1): SyncBatchNorm(128, eps=0.001, momentum=0.01, affine=True, track_running_stats=True)
              (2): ReLU()
            )
          )
          (conv_decoder_norm): ModuleList(
            (0): SyncBatchNorm(128, eps=0.001, momentum=0.01, affine=True, track_running_stats=True)
          )
          (norm): LayerNorm((128,), eps=1e-05, elementwise_affine=True)
          (norm_back): LayerNorm((128,), eps=1e-05, elementwise_affine=True)
        )
      )
      (sub_dim): Sequential(
        (0): Conv2d(128, 80, kernel_size=(3, 3), stride=(1, 1), padding=(1, 1), bias=False)
        (1): SyncBatchNorm(80, eps=1e-05, momentum=0.1, affine=True, track_running_stats=True)
        (2): ReLU()
        (3): ConvTranspose2d(80, 80, kernel_size=(3, 3), stride=(2, 2), padding=(1, 1), output_padding=(1, 1), bias=False)
        (4): SyncBatchNorm(80, eps=1e-05, momentum=0.1, affine=True, track_running_stats=True)
        (5): ReLU()
      )
      (pos_embed_inter): Sequential(
        (0): Linear(in_features=9, out_features=128, bias=True)
        (1): SyncBatchNorm(128, eps=1e-05, momentum=0.1, affine=True, track_running_stats=True)
        (2): ReLU(inplace=True)
        (3): Linear(in_features=128, out_features=128, bias=True)
      )
      (mamba_downsample): Sequential(
        (0): Conv2d(80, 128, kernel_size=(3, 3), stride=(1, 1), padding=(1, 1), bias=False)
        (1): SyncBatchNorm(128, eps=1e-05, momentum=0.1, affine=True, track_running_stats=True)
        (2): ReLU(inplace=True)
        (3): Conv2d(128, 128, kernel_size=(3, 3), stride=(2, 2), padding=(1, 1), bias=False)
        (4): SyncBatchNorm(128, eps=1e-05, momentum=0.1, affine=True, track_running_stats=True)
        (5): ReLU(inplace=True)
        (6): Conv2d(128, 128, kernel_size=(3, 3), stride=(1, 1), padding=(1, 1), bias=False)
        (7): SyncBatchNorm(128, eps=1e-05, momentum=0.1, affine=True, track_running_stats=True)
        (8): ReLU(inplace=True)
      )
      (depthnet): Conv2d(256, 198, kernel_size=(1, 1), stride=(1, 1))
      (downsample): Identity()
    )
    (map_to_bev_module): PointPillarScatter3d()
    (fuser): ConvFuser(
      (conv): Sequential(
        (0): Conv2d(208, 128, kernel_size=(3, 3), stride=(1, 1), padding=(1, 1), bias=False)
        (1): SyncBatchNorm(128, eps=1e-05, momentum=0.1, affine=True, track_running_stats=True)
        (2): ReLU(inplace=True)
      )
      (modality_dropout): ModalityDropout()
      (sparse_spatial_gate): SparseMoESpatialGate(
        (router): Sequential(
          (0): LazyLinear(in_features=0, out_features=128, bias=True)
          (1): SiLU(inplace=True)
          (2): Linear(in_features=128, out_features=3, bias=True)
        )
      )
    )
    (backbone_2d): BaseBEVResBackbone(
      (blocks): ModuleList(
        (0): Sequential(
          (0): BasicBlock(
            (conv1): Conv2d(128, 128, kernel_size=(3, 3), stride=(1, 1), padding=(1, 1), bias=False)
            (bn1): SyncBatchNorm(128, eps=0.001, momentum=0.01, affine=True, track_running_stats=True)
            (relu1): ReLU()
            (conv2): Conv2d(128, 128, kernel_size=(3, 3), stride=(1, 1), padding=(1, 1), bias=False)
            (bn2): SyncBatchNorm(128, eps=0.001, momentum=0.01, affine=True, track_running_stats=True)
            (relu2): ReLU()
            (downsample_layer): Sequential(
              (0): Conv2d(128, 128, kernel_size=(1, 1), stride=(1, 1), bias=False)
              (1): SyncBatchNorm(128, eps=0.001, momentum=0.01, affine=True, track_running_stats=True)
            )
          )
          (1): BasicBlock(
            (conv1): Conv2d(128, 128, kernel_size=(3, 3), stride=(1, 1), padding=(1, 1), bias=False)
            (bn1): SyncBatchNorm(128, eps=0.001, momentum=0.01, affine=True, track_running_stats=True)
            (relu1): ReLU()
            (conv2): Conv2d(128, 128, kernel_size=(3, 3), stride=(1, 1), padding=(1, 1), bias=False)
            (bn2): SyncBatchNorm(128, eps=0.001, momentum=0.01, affine=True, track_running_stats=True)
            (relu2): ReLU()
          )
        )
        (1): Sequential(
          (0): BasicBlock(
            (conv1): Conv2d(128, 128, kernel_size=(3, 3), stride=(2, 2), padding=(1, 1), bias=False)
            (bn1): SyncBatchNorm(128, eps=0.001, momentum=0.01, affine=True, track_running_stats=True)
            (relu1): ReLU()
            (conv2): Conv2d(128, 128, kernel_size=(3, 3), stride=(1, 1), padding=(1, 1), bias=False)
            (bn2): SyncBatchNorm(128, eps=0.001, momentum=0.01, affine=True, track_running_stats=True)
            (relu2): ReLU()
            (downsample_layer): Sequential(
              (0): Conv2d(128, 128, kernel_size=(1, 1), stride=(2, 2), bias=False)
              (1): SyncBatchNorm(128, eps=0.001, momentum=0.01, affine=True, track_running_stats=True)
            )
          )
          (1): BasicBlock(
            (conv1): Conv2d(128, 128, kernel_size=(3, 3), stride=(1, 1), padding=(1, 1), bias=False)
            (bn1): SyncBatchNorm(128, eps=0.001, momentum=0.01, affine=True, track_running_stats=True)
            (relu1): ReLU()
            (conv2): Conv2d(128, 128, kernel_size=(3, 3), stride=(1, 1), padding=(1, 1), bias=False)
            (bn2): SyncBatchNorm(128, eps=0.001, momentum=0.01, affine=True, track_running_stats=True)
            (relu2): ReLU()
          )
          (2): BasicBlock(
            (conv1): Conv2d(128, 128, kernel_size=(3, 3), stride=(1, 1), padding=(1, 1), bias=False)
            (bn1): SyncBatchNorm(128, eps=0.001, momentum=0.01, affine=True, track_running_stats=True)
            (relu1): ReLU()
            (conv2): Conv2d(128, 128, kernel_size=(3, 3), stride=(1, 1), padding=(1, 1), bias=False)
            (bn2): SyncBatchNorm(128, eps=0.001, momentum=0.01, affine=True, track_running_stats=True)
            (relu2): ReLU()
          )
        )
        (2): Sequential(
          (0): BasicBlock(
            (conv1): Conv2d(128, 256, kernel_size=(3, 3), stride=(2, 2), padding=(1, 1), bias=False)
            (bn1): SyncBatchNorm(256, eps=0.001, momentum=0.01, affine=True, track_running_stats=True)
            (relu1): ReLU()
            (conv2): Conv2d(256, 256, kernel_size=(3, 3), stride=(1, 1), padding=(1, 1), bias=False)
            (bn2): SyncBatchNorm(256, eps=0.001, momentum=0.01, affine=True, track_running_stats=True)
            (relu2): ReLU()
            (downsample_layer): Sequential(
              (0): Conv2d(128, 256, kernel_size=(1, 1), stride=(2, 2), bias=False)
              (1): SyncBatchNorm(256, eps=0.001, momentum=0.01, affine=True, track_running_stats=True)
            )
          )
          (1): BasicBlock(
            (conv1): Conv2d(256, 256, kernel_size=(3, 3), stride=(1, 1), padding=(1, 1), bias=False)
            (bn1): SyncBatchNorm(256, eps=0.001, momentum=0.01, affine=True, track_running_stats=True)
            (relu1): ReLU()
            (conv2): Conv2d(256, 256, kernel_size=(3, 3), stride=(1, 1), padding=(1, 1), bias=False)
            (bn2): SyncBatchNorm(256, eps=0.001, momentum=0.01, affine=True, track_running_stats=True)
            (relu2): ReLU()
          )
          (2): BasicBlock(
            (conv1): Conv2d(256, 256, kernel_size=(3, 3), stride=(1, 1), padding=(1, 1), bias=False)
            (bn1): SyncBatchNorm(256, eps=0.001, momentum=0.01, affine=True, track_running_stats=True)
            (relu1): ReLU()
            (conv2): Conv2d(256, 256, kernel_size=(3, 3), stride=(1, 1), padding=(1, 1), bias=False)
            (bn2): SyncBatchNorm(256, eps=0.001, momentum=0.01, affine=True, track_running_stats=True)
            (relu2): ReLU()
          )
        )
        (3): Sequential(
          (0): BasicBlock(
            (conv1): Conv2d(256, 256, kernel_size=(3, 3), stride=(2, 2), padding=(1, 1), bias=False)
            (bn1): SyncBatchNorm(256, eps=0.001, momentum=0.01, affine=True, track_running_stats=True)
            (relu1): ReLU()
            (conv2): Conv2d(256, 256, kernel_size=(3, 3), stride=(1, 1), padding=(1, 1), bias=False)
            (bn2): SyncBatchNorm(256, eps=0.001, momentum=0.01, affine=True, track_running_stats=True)
            (relu2): ReLU()
            (downsample_layer): Sequential(
              (0): Conv2d(256, 256, kernel_size=(1, 1), stride=(2, 2), bias=False)
              (1): SyncBatchNorm(256, eps=0.001, momentum=0.01, affine=True, track_running_stats=True)
            )
          )
          (1): BasicBlock(
            (conv1): Conv2d(256, 256, kernel_size=(3, 3), stride=(1, 1), padding=(1, 1), bias=False)
            (bn1): SyncBatchNorm(256, eps=0.001, momentum=0.01, affine=True, track_running_stats=True)
            (relu1): ReLU()
            (conv2): Conv2d(256, 256, kernel_size=(3, 3), stride=(1, 1), padding=(1, 1), bias=False)
            (bn2): SyncBatchNorm(256, eps=0.001, momentum=0.01, affine=True, track_running_stats=True)
            (relu2): ReLU()
          )
          (2): BasicBlock(
            (conv1): Conv2d(256, 256, kernel_size=(3, 3), stride=(1, 1), padding=(1, 1), bias=False)
            (bn1): SyncBatchNorm(256, eps=0.001, momentum=0.01, affine=True, track_running_stats=True)
            (relu1): ReLU()
            (conv2): Conv2d(256, 256, kernel_size=(3, 3), stride=(1, 1), padding=(1, 1), bias=False)
            (bn2): SyncBatchNorm(256, eps=0.001, momentum=0.01, affine=True, track_running_stats=True)
            (relu2): ReLU()
          )
        )
      )
      (deblocks): ModuleList(
        (0): Sequential(
          (0): Conv2d(128, 128, kernel_size=(2, 2), stride=(2, 2), bias=False)
          (1): SyncBatchNorm(128, eps=0.001, momentum=0.01, affine=True, track_running_stats=True)
          (2): ReLU()
        )
        (1): Sequential(
          (0): ConvTranspose2d(128, 128, kernel_size=(1, 1), stride=(1, 1), bias=False)
          (1): SyncBatchNorm(128, eps=0.001, momentum=0.01, affine=True, track_running_stats=True)
          (2): ReLU()
        )
        (2): Sequential(
          (0): ConvTranspose2d(256, 128, kernel_size=(2, 2), stride=(2, 2), bias=False)
          (1): SyncBatchNorm(128, eps=0.001, momentum=0.01, affine=True, track_running_stats=True)
          (2): ReLU()
        )
        (3): Sequential(
          (0): ConvTranspose2d(256, 128, kernel_size=(4, 4), stride=(4, 4), bias=False)
          (1): SyncBatchNorm(128, eps=0.001, momentum=0.01, affine=True, track_running_stats=True)
          (2): ReLU()
        )
      )
    )
    (dense_head): TransFusionHead(
      (loss_cls): SigmoidFocalClassificationLoss()
      (loss_bbox): L1Loss()
      (loss_heatmap): GaussianFocalLoss()
      (shared_conv): Conv2d(512, 128, kernel_size=(3, 3), stride=(1, 1), padding=(1, 1))
      (heatmap_head): Sequential(
        (0): BasicBlock2D(
          (conv): Conv2d(128, 128, kernel_size=(3, 3), stride=(1, 1), padding=(1, 1))
          (bn): SyncBatchNorm(128, eps=1e-05, momentum=0.1, affine=True, track_running_stats=True)
          (relu): ReLU(inplace=True)
        )
        (1): Conv2d(128, 10, kernel_size=(3, 3), stride=(1, 1), padding=(1, 1))
      )
      (class_encoding): Conv1d(10, 128, kernel_size=(1,), stride=(1,))
      (decoder): TransformerDecoderLayer(
        (self_attn): MultiheadAttention(
          (out_proj): NonDynamicallyQuantizableLinear(in_features=128, out_features=128, bias=True)
        )
        (multihead_attn): MultiheadAttention(
          (out_proj): NonDynamicallyQuantizableLinear(in_features=128, out_features=128, bias=True)
        )
        (linear1): Linear(in_features=128, out_features=256, bias=True)
        (dropout): Dropout(p=0.1, inplace=False)
        (linear2): Linear(in_features=256, out_features=128, bias=True)
        (norm1): LayerNorm((128,), eps=1e-05, elementwise_affine=True)
        (norm2): LayerNorm((128,), eps=1e-05, elementwise_affine=True)
        (norm3): LayerNorm((128,), eps=1e-05, elementwise_affine=True)
        (dropout1): Dropout(p=0.1, inplace=False)
        (dropout2): Dropout(p=0.1, inplace=False)
        (dropout3): Dropout(p=0.1, inplace=False)
        (self_posembed): PositionEmbeddingLearned(
          (position_embedding_head): Sequential(
            (0): Conv1d(2, 128, kernel_size=(1,), stride=(1,))
            (1): SyncBatchNorm(128, eps=1e-05, momentum=0.1, affine=True, track_running_stats=True)
            (2): ReLU(inplace=True)
            (3): Conv1d(128, 128, kernel_size=(1,), stride=(1,))
          )
        )
        (cross_posembed): PositionEmbeddingLearned(
          (position_embedding_head): Sequential(
            (0): Conv1d(2, 128, kernel_size=(1,), stride=(1,))
            (1): SyncBatchNorm(128, eps=1e-05, momentum=0.1, affine=True, track_running_stats=True)
            (2): ReLU(inplace=True)
            (3): Conv1d(128, 128, kernel_size=(1,), stride=(1,))
          )
        )
      )
      (prediction_head): SeparateHead_Transfusion(
        (center): Sequential(
          (0): Sequential(
            (0): Conv1d(128, 64, kernel_size=(1,), stride=(1,))
            (1): SyncBatchNorm(64, eps=1e-05, momentum=0.1, affine=True, track_running_stats=True)
            (2): ReLU()
          )
          (1): Conv1d(64, 2, kernel_size=(1,), stride=(1,))
        )
        (height): Sequential(
          (0): Sequential(
            (0): Conv1d(128, 64, kernel_size=(1,), stride=(1,))
            (1): SyncBatchNorm(64, eps=1e-05, momentum=0.1, affine=True, track_running_stats=True)
            (2): ReLU()
          )
          (1): Conv1d(64, 1, kernel_size=(1,), stride=(1,))
        )
        (dim): Sequential(
          (0): Sequential(
            (0): Conv1d(128, 64, kernel_size=(1,), stride=(1,))
            (1): SyncBatchNorm(64, eps=1e-05, momentum=0.1, affine=True, track_running_stats=True)
            (2): ReLU()
          )
          (1): Conv1d(64, 3, kernel_size=(1,), stride=(1,))
        )
        (rot): Sequential(
          (0): Sequential(
            (0): Conv1d(128, 64, kernel_size=(1,), stride=(1,))
            (1): SyncBatchNorm(64, eps=1e-05, momentum=0.1, affine=True, track_running_stats=True)
            (2): ReLU()
          )
          (1): Conv1d(64, 2, kernel_size=(1,), stride=(1,))
        )
        (vel): Sequential(
          (0): Sequential(
            (0): Conv1d(128, 64, kernel_size=(1,), stride=(1,))
            (1): SyncBatchNorm(64, eps=1e-05, momentum=0.1, affine=True, track_running_stats=True)
            (2): ReLU()
          )
          (1): Conv1d(64, 2, kernel_size=(1,), stride=(1,))
        )
        (iou): Sequential(
          (0): Sequential(
            (0): Conv1d(128, 64, kernel_size=(1,), stride=(1,))
            (1): SyncBatchNorm(64, eps=1e-05, momentum=0.1, affine=True, track_running_stats=True)
            (2): ReLU()
          )
          (1): Conv1d(64, 1, kernel_size=(1,), stride=(1,))
        )
        (heatmap): Sequential(
          (0): Sequential(
            (0): Conv1d(128, 64, kernel_size=(1,), stride=(1,))
            (1): SyncBatchNorm(64, eps=1e-05, momentum=0.1, affine=True, track_running_stats=True)
            (2): ReLU()
          )
          (1): Conv1d(64, 10, kernel_size=(1,), stride=(1,))
        )
      )
    )
  )
)
2026-03-04 10:33:23,173   INFO  **********************Start training mambafusion_models/mamba_fusion(default)**********************
2026-03-04 10:34:29,962   INFO  Train:    8/10 ( 80%) [4359/10299 ( 42%)]  Loss: 1.777 (1.78)  loss_hm=0.5977, loss_cls=0.0796, loss_bbox=0.7711, matched_ious=0.5118, loss_iou=0.0974, loss_iou_reg=0.2313, d_time=5.11(5.11), f_time=60.52(60.52), b_time=65.63(65.63)  LR: 5.852e-04  Time cost: 01:05/108:10:11 [01:06/483:16:02]  Acc_iter 76453       Data time: 5.11(5.11)  Forward time: 60.52(60.52)  Batch time: 65.63(65.63)
…
